.dart_tool/chrome-device/Default/optimization_guide_prediction_model_downloads/14ea3f8c-7fc1-453c-b2be-7aeff60fead5/model.tflite (tflite, 410364 bytes, 166 tensors)

context_transformer_0/bottleneck_input/norm/add f4 [32]
0	0xbc8bff2e	-0.017089453
1	0x3c411b51	0.011786298
2	0xbe6fe53c	-0.2342729
3	0x3c26e98a	0.010187516
4	0xbd3de6b6	-0.0463626
5	0x3e23a5c5	0.15981205
6	0x3df52cf2	0.11971463
7	0xbce35f8c	-0.027755521
8	0x3da13165	0.078707494
9	0x3c1b0784	0.009462241
10	0x3d1544e8	0.036442667
11	0x3c713f69	0.014724591
12	0xbd185d8b	-0.037198585
13	0x3cbd997c	0.023144476
14	0x3da456ac	0.08024344
15	0x3d24b0c4	0.04020764
16	0xbdecaeee	-0.11556803
17	0xbe319b95	-0.17344506
18	0x3d6ad258	0.057329506
19	0xbd67df78	-0.0566096
20	0xbdb3b0a4	-0.08773926
21	0x3ddad824	0.10685757
22	0x3d7cc747	0.061713483
23	0xbdb8fe09	-0.09032828
24	0xbe41f086	-0.18939409
25	0x3d912e20	0.07088876
26	0xbce90a4c	-0.028447293
27	0x3d57ad00	0.05265522
28	0xbd8f4b53	-0.06996789
29	0x3e0edc94	0.13951331
30	0x3e15c602	0.14626315
31	0xbe74263c	-0.2384271

context_transformer_1/bottleneck_input/norm/add f4 [32]
0	0x3e10402a	0.14086977
1	0x3e5ff82c	0.21872014
2	0xbde11c26	-0.10991697
3	0xbe292dbd	-0.16521354
4	0x3d302005	0.042999286
5	0xbdac3d4e	-0.084101304
6	0x3cf649e5	0.030064533
7	0x3e124296	0.14283213
8	0x3e4c3442	0.1994181
9	0x3df9dadc	0.12199947
10	0x3d321df6	0.043485604
11	0xbcaef9f1	-0.021359416
12	0x3db31214	0.087436825
13	0x3c867e60	0.016417682
14	0x3c8b8622	0.017031733
15	0xbdd3bf54	-0.10339227
16	0xbc8be5cc	-0.01707735
17	0x3d197244	0.037462488
18	0x3e3b90b3	0.18316917
19	0x3d1f65aa	0.038915314
20	0x3da964a6	0.0827115
21	0xbdef4db4	-0.116847426
22	0xbe0f4e1c	-0.1399464
23	0xbe21f388	-0.15815556
24	0x3d6cc5a9	0.05780569
25	0x3d72d0a8	0.05928102
26	0x3e233984	0.15939909
27	0xbd015fd4	-0.03158553
28	0xbc98267d	-0.01857304
29	0xbd816e92	-0.06319918
30	0x3d06fb93	0.032954764
31	0x3d606f53	0.054793667

mention_transformer_0/bottleneck_input/norm/add f4 [32]
0	0x3e1d5276	0.15363488
1	0x3a8898ec	0.0010421551
2	0xbe6942da	-0.22779408
3	0x3e602801	0.2189026
4	0x3dd4035a	0.10352202
5	0x3dbb9d21	0.09160829
6	0x3d917d59	0.07103986
7	0x3d354dee	0.044263773
8	0xbbd12aea	-0.0063832896
9	0x3d4dcbfa	0.050243355
10	0xbe854a24	-0.26033127
11	0x3db742d8	0.08948296
12	0x3e39ff4e	0.18163797
13	0x3bdc04ed	0.0067144544
14	0xbd6e3716	-0.058158003
15	0x3d6a4af6	0.057200395
16	0x3d2390c4	0.03993298
17	0xbe39a967	-0.18131028
18	0x3cfee540	0.031115174
19	0xbd727df2	-0.059202142
20	0xbe32f9ee	-0.17478153
21	0xbdd2497a	-0.10267921
22	0xbdcd3630	-0.10020101
23	0xbe2fc857	-0.17166267
24	0x3bf52dfe	0.0074822893
25	0xbcefe0ee	-0.02928206
26	0xbd6b32ef	-0.05742162
27	0x3cc98867	0.024601175
28	0x3d4a0040	0.049316645
29	0x3bb427fc	0.0054979306
30	0xbdd4019e	-0.10351871
31	0x3e323c22	0.17405751

mention_transformer_1/bottleneck_input/norm/add f4 [32]
0	0x3e77cd5b	0.2419943
1	0xbe4ba1de	-0.19885966
2	0x3da51804	0.08061221
3	0x3d836b89	0.06416995
4	0xbd0d67eb	-0.034522932
5	0x3e843213	0.25819454
6	0xbe8f13b9	-0.27944735
7	0xbdc21d6e	-0.094782695
8	0x3e3aefc3	0.18255524
9	0xbc9e398f	-0.019314555
10	0xbe86eaf3	-0.26351127
11	0x3ebd0621	0.36918738
12	0x3dd3411e	0.103151545
13	0x3d11f452	0.035633393
14	0xbd3565d3	-0.04428656
15	0xbd2cc476	-0.042179547
16	0x3e61371a	0.21993676
17	0xbe87007c	-0.26367557
18	0xbdd6cec3	-0.104886554
19	0x3eb4ddc0	0.35325432
20	0x3e8737ca	0.2640975
21	0x3e7b2c46	0.24528608
22	0xbe0adec4	-0.13561541
23	0x3e239bc9	0.15977396
24	0x3f0941cc	0.53616023
25	0x3e719d1e	0.23595092
26	0x3e9d0237	0.30665752
27	0xbd2fb51b	-0.042897325
28	0x3e0b4c48	0.13603318
29	0xbda98a1b	-0.08278295
30	0x3dabaac0	0.08382177
31	0xbbc9327c	-0.0061400514

context_transformer_0/attention/value/add;context_transformer_0/attention/value/einsum/Einsum;context_transformer_0/attention/value/add/ReadVariableOp/resource f4 [32]
0	0x3cc111f3	0.02356813
1	0xbd32c4fb	-0.043644886
2	0x3cd76277	0.026292069
3	0xbcf75510	-0.030191928
4	0xbd37628e	-0.044771723
5	0x3d24a029	0.040191803
6	0xbc95be12	-0.01827911
7	0xbd3646c7	-0.044501092
8	0x3d2ccd1b	0.04218779
9	0xbdb2cb0a	-0.08730133
10	0x3dc195e6	0.09452419
11	0xbd9c944b	-0.07645472
12	0x3d863bcd	0.06554375
13	0xbd8aff4d	-0.06786976
14	0xbd4d1d7b	-0.050076943
15	0xbc85ee36	-0.01634894
16	0x3b8d06c5	0.0043037855
17	0x3ca282dc	0.01983779
18	0x3da21a5f	0.07915186
19	0xbd183b8e	-0.03716617
20	0xbdbda614	-0.092601925
21	0x3dba9981	0.0911131
22	0xbd909177	-0.07058995
23	0x3c6a6c67	0.014308072
24	0x3e03bf3e	0.12865922
25	0x3dfece1e	0.124416575
26	0xbda37bad	-0.07982574
27	0xbda04159	-0.07824964
28	0x3dbacfb8	0.091216505
29	0x3dd0a803	0.10188296
30	0x3d5566cc	0.052099988
31	0xbdebeb5d	-0.11519501

context_transformer_0/bottleneck_input/norm/mul f4 [32, 32]
0	0xbe461ae2	-0.19346192
1	0xbc94b50c	-0.018152736
2	0x3e88633f	0.2663822
3	0x3dcf3d09	0.101190634
4	0x3dbe47d2	0.092910424
5	0x3e41cffb	0.18926995
6	0xbd6b8043	-0.057495367
7	0x3e18ca37	0.14920889
8	0xbebc1429	-0.3673413
9	0x3e6661ac	0.22498196
10	0x3e82605b	0.25464138
11	0xbd91fc90	-0.071282506
12	0x3e4486ba	0.19192019
13	0x3d9ad1aa	0.075595215
14	0xbeec82b8	-0.4619348
15	0x3ea927e6	0.33038253
16	0x3e703345	0.23457058
17	0xbdec9633	-0.11552086
18	0x3ea44ea4	0.32091248
19	0x3f1c98b3	0.611705
20	0xbe1b88f9	-0.1518897
21	0xbe511186	-0.20416841
22	0xbe4d0e3a	-0.20024958
23	0xbe3fa86d	-0.18716593
24	0x3e1e9b52	0.15488937
25	0xbeb9e071	-0.36304048
26	0xbd8be420	-0.06830621
27	0x3d1386b5	0.03601714
28	0xbe14cca2	-0.14531186
29	0x3ec50815	0.3848273
30	0xbefaf31a	-0.49013597
31	0xbedde502	-0.43338782
32	0x3e97d1ec	0.29652345
33	0xbc8ca731	-0.017169567
34	0x3eea9672	0.45817906
35	0xbdf30e72	-0.118679896
36	0xbe579bf2	-0.21055582
37	0xbef5268e	-0.47880977
38	0x3ca0f0df	0.019646106
39	0xbd83a2a0	-0.06427503
40	0x3c66dad4	0.014090259
41	0x3eee0c1f	0.46493623
42	0x3e5f9e15	0.21837647
43	0xbd6ea357	-0.05826124
44	0x3e8e068a	0.27739364
45	0xbf09b354	-0.5378926
46	0xbf2526f4	-0.6451256
47	0x3f004394	0.50103116
48	0xbcd069c9	-0.025441067
49	0xbc94cf1a	-0.01816516
50	0xbe91d2f3	-0.28481254
51	0x3e13db71	0.14439179
52	0x3e9bea63	0.3045226
53	0x3df7676d	0.12080274
54	0x3ece1c7f	0.40256116
55	0xbe2f5fa7	-0.17126332
56	0x3e6ad212	0.22931698
57	0x3e698d21	0.22807743
58	0xbd8d9e76	-0.0691499
59	0x3e8387a7	0.25689432
60	0xbf14f562	-0.58186924
61	0xbe4616a4	-0.19344574
62	0xbebcd29b	-0.3687943
63	0x3e687fb5	0.22704966
64	0xbe8543a0	-0.26028156
65	0x3de3d258	0.11124104
66	0xbe983096	-0.29724568
67	0xbda4d08e	-0.08047591
68	0xbe9720cf	-0.29517218
69	0xbdfd3ebe	-0.12365483
70	0xbd9a1c41	-0.0752492
71	0x3dc36a03	0.095417045
72	0xbd040305	-0.032229442
73	0x3cdc892f	0.026920883
74	0x3c4878c5	0.012235825
75	0x3e13e71b	0.14443628
76	0x3e05b9f6	0.1305922
77	0xbe632fec	-0.2218625
78	0x3cac2705	0.0210147
79	0x3d09b6c1	0.033621553
80	0x3e99d773	0.30047187
81	0xbe2d8053	-0.16943483
82	0xbe450379	-0.19239606
83	0x3ebd8b7e	0.37020487
84	0x3e90f91d	0.28315058
85	0x3d943ec9	0.07238538
86	0xbed87145	-0.42273918
87	0xbd926441	-0.07148028
88	0xbe5300d5	-0.20605786
89	0xbcb41f12	-0.021987472
90	0xbd29b96b	-0.041436594
91	0x3abe914f	0.0014539155
92	0xbeb29005	-0.34875503
93	0xbde339db	-0.110950194
94	0x3b385628	0.0028127525
95	0x3e4b09c9	0.19827951
96	0x3d81f237	0.06345027
97	0xbf2c3b6e	-0.6727818
98	0x3eb747bd	0.3579692
99	0x3e395a2d	0.18100806
100	0x3e91c3b7	0.2846963
101	0x3f0cd4de	0.5501231
102	0xbe7654df	-0.24055813
103	0x3ed34268	0.412616
104	0xbdf58779	-0.1198873
105	0xbcaaa6ad	-0.02083143
106	0xbe87b6ce	-0.26506656
107	0xbeba1dec	-0.36350954
108	0xbdf30c26	-0.118675515
109	0x3f01aa4d	0.50650483
110	0xbe333a18	-0.1750263
111	0xbe317547	-0.17329894
112	0xbdb001d1	-0.085940965
113	0xbed1ee6d	-0.41002217
114	0x3efaac24	0.48959458
115	0xbe958b1e	-0.292077
116	0xbec73ac2	-0.38912016
117	0x3db988d7	0.09059303
118	0x3e326005	0.17419441
119	0xbe9835f4	-0.29728663
120	0xbc161d62	-0.009162279
121	0x3e0a3457	0.13496529
122	0x3e6ab5f3	0.2292097
123	0xbdd0ee50	-0.102017045
124	0x3df39fde	0.118957266
125	0x3ebb11f8	0.36537147
126	0xbdef0252	-0.116703644
127	0xbf0f5e0b	-0.56002873
128	0xbe0fad54	-0.14030963
129	0x3d86f505	0.065897025
130	0x3dcb2f2d	0.099211074
131	0xbeedeb8f	-0.4646878
132	0x3e82237d	0.254177
133	0x3ef08eb8	0.46983886
134	0xbe5b24f5	-0.21400817
135	0xbd692e98	-0.0569292
136	0xbc7c37a4	-0.015394125
137	0xbb7640b0	-0.0037575178
138	0xbeaa4270	-0.33253813
139	0x3d4ff2ba	0.05076859
140	0xbe3dfe86	-0.18554124
141	0xbdb569ee	-0.08858095
142	0xbe089fcc	-0.13342208
143	0x3e37e123	0.17956977
144	0x3dbf8c72	0.0935296
145	0x3d8f388b	0.069932066
146	0x3dabbc68	0.08385545
147	0xbd2b11c1	-0.04176498
148	0xbe4c6326	-0.19959697
149	0x3ebebe9b	0.37254795
150	0xbe83ba0d	-0.25727883
151	0x3f3c4edf	0.7355785
152	0xbed2e8a6	-0.41193122
153	0x3e05e5d0	0.13075948
154	0x3b29ff6b	0.0025939594
155	0x3d729901	0.059227947
156	0xbd2f7522	-0.042836316
157	0xbd99f771	-0.07517899
158	0xbbd22959	-0.0064136204
159	0xbee39c5b	-0.44455227
160	0xbc963389	-0.01833512
161	0x3d9c1101	0.07620431
162	0x3e8acda3	0.27110013
163	0xbe55fcf9	-0.20897283
164	0x3dc96d3b	0.09835287
165	0x3da17270	0.07883155
166	0xbd1c86f5	-0.038214643
167	0xbe4b9ac1	-0.19883253
168	0xbe9a308b	-0.3011516
169	0x3e66efa6	0.22552356
170	0x3e6ca69f	0.23110436
171	0x3e7104b2	0.23536947
172	0x3e40b808	0.18820202
173	0x3c8a484b	0.016880175
174	0xbd5c8326	-0.05383601
175	0x3bf7b993	0.007559964
176	0x3dfa88fe	0.122331604
177	0x3e8feec8	0.28111863
178	0x3d0bb959	0.03411231
179	0x3d12f55d	0.035878528
180	0x3e4abbe9	0.19798245
181	0x3dbab4e1	0.09116531
182	0x3df9afb4	0.12191716
183	0x3c9109a8	0.0177048
184	0xbe879922	-0.2648402
185	0x3e900d00	0.28134918
186	0xbe6f324d	-0.23359032
187	0x3daa27be	0.083083615
188	0xbe1d1b4b	-0.15342443
189	0xbdf3bf70	-0.11901748
190	0xbcc701c8	-0.024292842
191	0x3de24cb2	0.11049785
192	0x3d854289	0.06506831
193	0xbd496bf4	-0.049175218
194	0xbe5c77a4	-0.21530014
195	0x3ed05638	0.4069078
196	0xbd708b4b	-0.05872659
197	0x3ee5b6b1	0.44865945
198	0x3d1dfeb7	0.038572993
199	0xbe07f0bc	-0.13275427
200	0xbe3e0be4	-0.18559223
201	0xbe3a6103	-0.1820107
202	0x3e8d50b3	0.2760063
203	0xbe1dca2b	-0.15409152
204	0xbe3852a3	-0.18000273
205	0x3eef2c2d	0.4671339
206	0x3e7f1f9b	0.249144
207	0xbe576380	-0.2103405
208	0x3d714eb1	0.058912937
209	0xbecdb79d	-0.40179148
210	0xbeabf363	-0.33584127
211	0x3ead5377	0.3385274
212	0x3ecb9d31	0.39768365
213	0x3dc11aa5	0.0942891
214	0xbe3c3abd	-0.18381782
215	0xbe8f3791	-0.2797208
216	0x3b82d6a7	0.0039928737
217	0xbcd78ff3	-0.026313758
218	0x3dfb22b0	0.122624755
219	0xbea9dc17	-0.33175728
220	0x3edea0d4	0.43482077
221	0x3dccc276	0.09998028
222	0x3e04a1b0	0.12952304
223	0x3ea1ddee	0.3161463
224	0xbe7c60fe	-0.24646375
225	0xbe7eea87	-0.24894153
226	0x3e1a99c3	0.15097718
227	0x3ee4fc14	0.4472357
228	0x3dfed15a	0.124422744
229	0x3ca57613	0.020197904
230	0xbdd16834	-0.10224953
231	0xbd360000	-0.044433594
232	0xbc95bb66	-0.018277835
233	0xbd8fdcda	-0.07024546
234	0xbeab9a2a	-0.33516055
235	0x3de8df90	0.11370766
236	0xbea05939	-0.3131807
237	0x3d3feee5	0.046858687
238	0x3e81329c	0.25233924
239	0xbe993c8c	-0.29929006
240	0xbe250426	-0.16114864
241	0x3d3aabcf	0.045574006
242	0xbeabf03c	-0.33581722
243	0xbd639c57	-0.05556902
244	0x3e36dfa3	0.17858748
245	0xbe6321b1	-0.22180821
246	0x3e4dda21	0.20102741
247	0xbee51105	-0.44739547
248	0xbe3a99ab	-0.18222682
249	0x3e5a60c6	0.21325979
250	0x3c6508b9	0.01397913
251	0xbe81997a	-0.25312406
252	0x3ee26e32	0.44224697
253	0x3e25e655	0.16201146
254	0x3ee9670f	0.4558644
255	0x3e4d985a	0.20077649

context_transformer_0/kq_shared_bottleneck/norm/mul;context_transformer_0/kq_shared_bottleneck/norm/add;context_transformer_0/attention/key/einsum/Einsum;context_transformer_0/attention/key/add;context_transformer_0/attention/value/einsum/Einsum;context_transformer_0/attention/key/add/ReadVariableOp/resource f4 [32]
0	0x3ce9a801	0.028522493
1	0x3c715141	0.014728845
2	0x3e63b7d5	0.22238095
3	0x3dc44724	0.095838815
4	0xb9cd3f84	-0.0003914797
5	0xbc756dcd	-0.014979792
6	0xbd4d59c2	-0.050134428
7	0xbcbdd5e3	-0.023173278
8	0x3d92eec0	0.07174444
9	0xbd998f2c	-0.07498011
10	0xbda09ef2	-0.078428164
11	0x3c91a314	0.017777957
12	0xbe1d8f0d	-0.15386601
13	0xbab62cd3	-0.0013898857
14	0xbca7c85f	-0.020481287
15	0x3d17730e	0.03697496
16	0x3d27c382	0.040957935
17	0x3e5e17ab	0.21688716
18	0xbcb30b73	-0.021856045
19	0xbe03e3a9	-0.12879814
20	0x3bc0f3de	0.0058884462
21	0x3e3f520a	0.18683639
22	0x3bdd5b36	0.006755258
23	0xbd34824b	-0.04406957
24	0xbdb9bdfd	-0.090694405
25	0xbdd0a168	-0.10187036
26	0x3d957c23	0.07299068
27	0xbd7f2ab6	-0.06229659
28	0xbdc48cb4	-0.095971495
29	0xbdbbac0f	-0.09163677
30	0x3da49320	0.08035874
31	0x3dd235e1	0.10264183

context_transformer_0/kq_shared_bottleneck/norm/mul;context_transformer_0/kq_shared_bottleneck/norm/add;context_transformer_0/attention/key/einsum/Einsum;context_transformer_0/attention/key/add;context_transformer_0/attention/value/einsum/Einsum;context_transformer_0/attention/key/add/ReadVariableOp/resource1 f4 [32, 32]
0	0xbdf90b4f	-0.1216036
1	0x3d340cd7	0.043957558
2	0x3e9df92a	0.3085416
3	0x3d89b273	0.067234896
4	0xbe4d29c3	-0.20035462
5	0xbd86e445	-0.06586508
6	0x3e0f6710	0.14004159
7	0x3e6444ca	0.22291866
8	0xbceadef1	-0.02867076
9	0xbd9d31f1	-0.07675541
10	0x3dbcf688	0.092267096
11	0x3e04e3dc	0.12977546
12	0xbcad0509	-0.021120565
13	0x3df811c7	0.12112766
14	0x3d557639	0.0521147
15	0x3e1dd8b9	0.15414704
16	0x3db7f014	0.08981338
17	0xbe15046a	-0.14552465
18	0xbd392cfe	-0.045208924
19	0x3d440573	0.04785676
20	0x3b36b026	0.0027875989
21	0xbdc4242d	-0.095772125
22	0x3d084009	0.033264194
23	0x3d0abe22	0.03387273
24	0xbd3fc1ab	-0.046815556
25	0x3d3a2e98	0.04545459
26	0xbdaddcc3	-0.084893726
27	0x3d8db63f	0.06919526
28	0xbce674a0	-0.028131783
29	0x3d027226	0.03184714
30	0x3e04a312	0.12952831
31	0x3e0afc13	0.13572721
32	0xbdf8e5e7	-0.121532254
33	0x3ca8c8df	0.020603595
34	0x3e839c87	0.25705358
35	0x3d8fae9c	0.07015726
36	0xbe52b37d	-0.20576282
37	0xbdcd2a70	-0.1001786
38	0x3dec746c	0.11545643
39	0x3e55363f	0.20821474
40	0xbcc40114	-0.023926295
41	0xbd6fd9d7	-0.058557358
42	0x3dc9a459	0.098458
43	0x3df58021	0.11987329
44	0xbc25487a	-0.010088081
45	0x3da5135f	0.08060335
46	0x3db32852	0.08747925
47	0x3e2ae7b7	0.16689955
48	0x3d8abc34	0.06774178
49	0xbdfa1684	-0.12211326
50	0xbc478aa5	-0.0121790515
51	0x3d4d8f16	0.050185286
52	0xbd415f3d	-0.047209967
53	0xbe0b6fe6	-0.13616905
54	0x3d931ef4	0.07183638
55	0x3d404fd1	0.04695112
56	0xbd50c895	-0.05097254
57	0x3cbbe545	0.022936473
58	0xbd8ef925	-0.06981114
59	0x3b4fdc3a	0.0031716959
60	0xbd3c8a27	-0.04603019
61	0xbb67e8a2	-0.0035386463
62	0x3e263af6	0.1623343
63	0x3d8fb0dd	0.07016156
64	0xbdc5413e	-0.096315846
65	0xbba13347	-0.004919443
66	0x3f146bf0	0.579772
67	0x3e0ac150	0.13550305
68	0xbdfa4582	-0.12220289
69	0xbcf28d2a	-0.029608328
70	0x3e5b3a24	0.21408898
71	0x3e50fd5e	0.20409152
72	0x3d4896c7	0.048971917
73	0xbed311bd	-0.4122447
74	0x3d07d540	0.033162355
75	0x3f0c28c3	0.547497
76	0x3d63347f	0.055469986
77	0x3d8e0653	0.069348
78	0xbdd19969	-0.10234339
79	0x3d04b90a	0.03240303
80	0xbd9facd9	-0.0779664
81	0x3aa66ea1	0.0012697765
82	0x3ea3714e	0.31922382
83	0x3db1b46e	0.08676992
84	0x3d849e37	0.064754896
85	0xbb66c882	-0.0035214727
86	0xbd1d0bc6	-0.038341306
87	0xbdf7a0c2	-0.12091209
88	0x3de659ec	0.1124762
89	0x3dd58856	0.10426395
90	0x3d870fd3	0.06594815
91	0x3df580d8	0.119874656
92	0x3d7bb596	0.06145247
93	0x3e40c018	0.18823278
94	0x3d59d5a0	0.053182244
95	0x3e654e8f	0.22393249
96	0xbe0edcd9	-0.13951434
97	0x3d4a9690	0.049459994
98	0x3ea10629	0.31450012
99	0x3dffd21f	0.12491249
100	0xbe149286	-0.1450902
101	0xbd79afed	-0.06095879
102	0x3da5ef60	0.08102298
103	0x3e3d2a1d	0.18473096
104	0xbbe31cac	-0.006930908
105	0xbe23d7a4	-0.16000229
106	0x3da08699	0.078381725
107	0x3e8dd665	0.27702633
108	0xbbca1438	-0.006166961
109	0x3dc58bf2	0.09645833
110	0x3ccf052b	0.025271019
111	0x3db37261	0.087620504
112	0x3c612ec8	0.013744064
113	0xbced2199	-0.028946685
114	0x3e194704	0.14968497
115	0x3d0e9aff	0.034815785
116	0xbbd52c65	-0.0065055364
117	0xbd8bf5dd	-0.06834004
118	0x3c393f95	0.011306663
119	0xbd36f68f	-0.04466873
120	0x3d464ff5	0.048416097
121	0x3d1c4d33	0.03815956
122	0xbc1f0ee9	-0.009708145
123	0x3cf1d14c	0.029518746
124	0x3d4029a6	0.04691472
125	0x3d257197	0.04039153
126	0x3dd30f80	0.10305691
127	0x3dcafbd3	0.09911313
128	0xbe142d1e	-0.14470336
129	0x3cee7e39	0.029112922
130	0x3e82eecc	0.25572813
131	0x3d9fd9c6	0.07805209
132	0xbe4b0006	-0.19824228
133	0xbde9c831	-0.114151366
134	0x3dbd7051	0.09249938
135	0x3e77bfdd	0.24194284
136	0xbd915f06	-0.070982024
137	0xbdc4ead9	-0.09615106
138	0x3e092b37	0.13395391
139	0x3d88c9ed	0.06679139
140	0xbd3130e9	-0.043259535
141	0x3dd8cc25	0.105858125
142	0x3daf3b8f	0.08556282
143	0x3e4167a2	0.18887189
144	0x3ded8212	0.115970746
145	0xbe17fe49	-0.14843096
146	0xbd9f783c	-0.07786605
147	0x3d9e67b3	0.07734623
148	0xbda30aa9	-0.07961018
149	0xbe0a6247	-0.13514052
150	0x3d5eb54b	0.054372113
151	0x3da978e5	0.08275012
152	0xbdb95555	-0.09049479
153	0xbb1a8618	-0.0023578461
154	0xbdfa89bb	-0.12233301
155	0xbbb16fe8	-0.0054149516
156	0xbd675821	-0.05648053
157	0x3c2a2a41	0.010386051
158	0x3e1f292d	0.15543051
159	0x3db2f271	0.08737648
160	0xbe23c128	-0.15991652
161	0xbd0bfe6e	-0.03417819
162	0x3e97984c	0.2960838
163	0x3daa4a72	0.083149806
164	0xbe85ff8e	-0.26171535
165	0xbdffc9a2	-0.1248963
166	0x3e071306	0.1319085
167	0x3e879069	0.26477364
168	0xbd60f54e	-0.05492144
169	0xbd221e50	-0.03957969
170	0x3dfeba14	0.12437835
171	0x3da7d2b0	0.08194482
172	0xbd135391	-0.035968367
173	0x3dff1ac8	0.1245628
174	0x3de34e3b	0.11098906
175	0x3e5f21ff	0.21790312
176	0x3e097e68	0.13427126
177	0xbe37ea46	-0.17960462
178	0xbd6b9702	-0.05751706
179	0x3d85b7ec	0.06529221
180	0xbd95023f	-0.07275819
181	0xbdf09bd3	-0.11748471
182	0x3d986a06	0.07442097
183	0x3da85972	0.08220185
184	0xbda9c769	-0.082899876
185	0x3d022857	0.031776752
186	0xbdfe54f5	-0.12418548
187	0x3cb0334e	0.021508839
188	0xbd55d2ef	-0.052203115
189	0x3d088bb7	0.033336367
190	0x3e51ee29	0.20501007
191	0x3e166d5a	0.14690152
192	0xbe21c38d	-0.15797253
193	0xbca87c2e	-0.020567026
194	0x3e7c25e3	0.24623828
195	0x3d22f4ad	0.039784122
196	0xbe8107e7	-0.25201342
197	0xbdfa4d43	-0.12221768
198	0x3dd9943b	0.10623976
199	0x3e616602	0.22011569
200	0xbdcb95ef	-0.09940707
201	0xbb95d94c	-0.004573023
202	0x3e03b935	0.1286362
203	0x3c741bdd	0.014899221
204	0xbd8b885d	-0.068131186
205	0x3e19d134	0.15021211
206	0x3df27902	0.11839487
207	0x3e6da445	0.23207195
208	0x3e3d22c4	0.18470293
209	0xbe57c158	-0.21069849
210	0xbe0b6a99	-0.13614883
211	0x3d420b53	0.04737408
212	0xbd56c4b3	-0.05243368
213	0xbe2ad699	-0.16683425
214	0x3d6253c5	0.05525567
215	0x3dc2d4b4	0.09513226
216	0xbe05df84	-0.13073546
217	0x3ca3737f	0.019952534
218	0xbe350d66	-0.17680892
219	0x3c066e64	0.00820503
220	0xbdc286b0	-0.09498346
221	0x3cb5ec24	0.022207327
222	0x3e45c7d6	0.19314513
223	0x3e0de03e	0.13855073
224	0x3e250a0f	0.16117118
225	0xbbf7c74a	-0.007561599
226	0xbe96eab6	-0.29475945
227	0xbdd760e4	-0.10516527
228	0x3e63af40	0.22234821
229	0x3da14c3e	0.0787587
230	0xbde93a51	-0.11388076
231	0xbe510fbb	-0.20416157
232	0x3d7f87c4	0.062385336
233	0x3dd762d1	0.105168946
234	0xbde275bc	-0.11057612
235	0xbde3a565	-0.11115531
236	0x3d3cb3f6	0.04607006
237	0xbe0027ec	-0.12515229
238	0xbd9360fa	-0.07196231
239	0xbe2d8fb9	-0.16949357
240	0xbdd27250	-0.1027571
241	0x3e0f9250	0.14020658
242	0x3d93c029	0.07214386
243	0xbd3386de	-0.04382979
244	0x3c9f1539	0.0194193
245	0x3dc1443d	0.094368435
246	0xbce7d714	-0.0283008
247	0xbd07ab44	-0.033122316
248	0x3d3f9a80	0.046778202
249	0xbcb18a07	-0.021672262
250	0x3da2b346	0.0794435
251	0xbd886b2a	-0.06661065
252	0x3c89666a	0.016772468
253	0xbd0ab9d4	-0.033868626
254	0xbe308c98	-0.17241132
255	0xbe0ea2c8	-0.13929284

context_transformer_0/kq_shared_bottleneck/norm/mul;context_transformer_0/kq_shared_bottleneck/norm/add;context_transformer_0/attention/query/einsum/Einsum;context_transformer_0/attention/query/add;context_transformer_0/attention/value/einsum/Einsum;context_transformer_0/attention/query/add/ReadVariableOp/resource;context_transformer_0/attention/Mul;context_transformer_0/attention/Mul/y f4 [32]
0	0xbe07137c	-0.13191026
1	0xbe0794d9	-0.13240375
2	0xbe08f93d	-0.13376327
3	0xbe05350a	-0.13008514
4	0xbe120727	-0.14260541
5	0xbe1ffcee	-0.15623829
6	0xbe1a05b5	-0.1504124
7	0x3e0da43c	0.13832182
8	0xbd29520d	-0.041338015
9	0x3db82612	0.08991636
10	0x3d5b3deb	0.053525846
11	0xbd93730f	-0.0719968
12	0x3dbdc336	0.09265749
13	0xbdbff26d	-0.09372411
14	0x3d95f758	0.07322568
15	0xbd1ade64	-0.037809744
16	0xbceb0cb6	-0.028692584
17	0x3cb78354	0.02240149
18	0xbd608ab8	-0.054819793
19	0x3e03d85b	0.12875502
20	0xbcb37c44	-0.02190984
21	0x3cfbd506	0.030741226
22	0x3ddca911	0.10774434
23	0xbd16b975	-0.03679796
24	0xbe448fbe	-0.19195458
25	0xbe6651eb	-0.22492187
26	0x3e364b50	0.17802167
27	0x3e39f115	0.18158372
28	0xbe5f5f55	-0.2181371
29	0xbe56accc	-0.20964354
30	0x3e59887b	0.2124347
31	0x3e5953eb	0.21223418

context_transformer_0/kq_shared_bottleneck/norm/mul;context_transformer_0/kq_shared_bottleneck/norm/add;context_transformer_0/attention/query/einsum/Einsum;context_transformer_0/attention/query/add;context_transformer_0/attention/value/einsum/Einsum;context_transformer_0/attention/query/add/ReadVariableOp/resource;context_transformer_0/attention/Mul;context_transformer_0/attention/Mul/y1 f4 [32, 32]
0	0xbbd2daab	-0.0064347587
1	0xbd52a16d	-0.05142348
2	0xbd2d5afa	-0.04232309
3	0xbbc39c94	-0.0059695933
4	0x3c020068	0.007934667
5	0x3cbac4b7	0.02279888
6	0x3d23ac45	0.03995921
7	0xbc049b5e	-0.008093683
8	0x3d139ccb	0.0360382
9	0x3d9a2e18	0.07528323
10	0xb898f650	-7.293804e-05
11	0xbca89a0d	-0.02058127
12	0x3d1036fa	0.03520868
13	0x3b88a66d	0.00417023
14	0xbc52ad4b	-0.012858699
15	0xbccf90f6	-0.025337677
16	0xb98cdff0	-0.00026869727
17	0x3c0f38f8	0.00874161
18	0x3c9673e2	0.018365804
19	0xbd1ccff5	-0.03828426
20	0x3c585f71	0.013206349
21	0x3ba076c1	0.004896969
22	0xbc9d22a5	-0.019181559
23	0xbb74428d	-0.0037271113
24	0xbb2683b9	-0.0025408103
25	0xbd088887	-0.033333328
26	0xbbe4d9f6	-0.006983991
27	0x3bb5cbd6	0.005547981
28	0x3c4ac9bc	0.012377199
29	0x3d0be9e8	0.034158617
30	0xbc72606b	-0.014793496
31	0x3d1582c6	0.03650167
32	0xba3bfbf4	-0.0007171028
33	0xbd6e3429	-0.058155213
34	0xbcb8b696	-0.022548001
35	0x3bcebf0a	0.0063093947
36	0xbc2f7351	-0.010708646
37	0x3c868f37	0.016425712
38	0x3d4e42f9	0.05035684
39	0xbbe7f584	-0.0070788283
40	0x3c99427a	0.018708456
41	0x3d75be32	0.059995838
42	0x3b513ec0	0.003192827
43	0xbcd270f4	-0.025688626
44	0x3cd984eb	0.026552638
45	0x3c815eb5	0.01579223
46	0xbb9294d2	-0.004473307
47	0xbc918c71	-0.017767163
48	0x3aac15c0	0.0013129041
49	0x3c52f5dd	0.012876001
50	0x3b087fa0	0.0020828024
51	0xbcd7c7bd	-0.02634036
52	0x3bfdd585	0.007746401
53	0x3bfee7f0	0.007779114
54	0xbc3df19c	-0.011593249
55	0x3ba1be06	0.0049359826
56	0xbbb1ee7c	-0.005430041
57	0xbd2e53c7	-0.042560365
58	0xbc6fc1c3	-0.014633599
59	0xb9c77deb	-0.00038050054
60	0x3b012c3a	0.00197102
61	0x3d357cca	0.04430846
62	0xbb2ddc0d	-0.0026528866
63	0x3d444e69	0.04792634
64	0x3d368cf5	0.04456802
65	0x3d3b1718	0.04567632
66	0xbe4b4b89	-0.19853033
67	0x3d0525bb	0.032506686
68	0x3d88c3da	0.06677981
69	0x3ccadde0	0.024764001
70	0xbd4f0dae	-0.050550155
71	0xbd91e378	-0.07123464
72	0x3c8b4769	0.017001824
73	0x3e080122	0.13281682
74	0xbcad16b8	-0.021128997
75	0x3a94b907	0.0011346646
76	0x3bc44a6c	0.005990317
77	0xbdabdbfc	-0.08391568
78	0xbcf9aadd	-0.030476982
79	0xbdb0a7f5	-0.08625785
80	0xbdb23fc5	-0.08703569
81	0x3d9b1cbb	0.07573839
82	0x3c936423	0.017992085
83	0x3c6bac7a	0.014384383
84	0xbaecf3a2	-0.0018077979
85	0xbd08b990	-0.03338009
86	0xbc7d49e4	-0.015459511
87	0x3c87c656	0.016574066
88	0x3b31c930	0.0027127974
89	0xbc997bc0	-0.018735766
90	0x3d540334	0.051760867
91	0xbdd215fc	-0.102580994
92	0xbacc2202	-0.00155741
93	0xbd4d6b0d	-0.05015092
94	0xbdb5aebf	-0.08871221
95	0xbd84152c	-0.06449351
96	0x3bf3edff	0.007444143
97	0xbc72d4bd	-0.014821229
98	0xbd94e7e5	-0.07270793
99	0x3ca18c00	0.019720078
100	0x3ce06fc6	0.027397048
101	0x3ca11464	0.019663043
102	0x3b81945d	0.003954454
103	0xbcbe1c30	-0.0232068
104	0x3ca4724f	0.020074038
105	0x3dc27705	0.094953574
106	0xbbce30a2	-0.0062924186
107	0xbcc7322a	-0.024315912
108	0x3bdcb419	0.0067353365
109	0xbc632ae9	-0.013865211
110	0xbc5827ba	-0.013193065
111	0xbce6c97a	-0.028172243
112	0xbca970f0	-0.020683736
113	0x3d073d6b	0.033017557
114	0x3c8b9ed5	0.01704351
115	0xbbb38f68	-0.005479742
116	0xbc4b51cf	-0.012409641
117	0xbcbf5044	-0.023353703
118	0xbc6114fe	-0.013737915
119	0x3c25860e	0.010102762
120	0xbb82d846	-0.003993067
121	0xbcb40554	-0.021975197
122	0xb99f0a66	-0.0003033459
123	0xbd6903a2	-0.05688823
124	0xbc4658bc	-0.012106117
125	0x3be9d73f	0.007136255
126	0xbd131226	-0.03590598
127	0x3c12d425	0.008961712
128	0xbafc9daf	-0.0019273068
129	0xbd97046d	-0.07373891
130	0x3a241699	0.0006259471
131	0xbb5d7d8f	-0.0033796763
132	0xbc635153	-0.01387437
133	0x3cdbe775	0.026843766
134	0x3d5fc423	0.05463041
135	0x3ab3d693	0.0013720564
136	0x3c8b8c31	0.017034622
137	0x3d9fc76a	0.07801707
138	0xbaecdb76	-0.0018070776
139	0xbcdba825	-0.026813576
140	0x3d31b718	0.043387502
141	0x3ce85b5e	0.02836388
142	0x3aeb21b9	0.0017939127
143	0xbbfe3c11	-0.0077586253
144	0x3bc58a57	0.0060284543
145	0x3bbd4236	0.005775715
146	0x3c0e4985	0.008684521
147	0xbd081858	-0.03322634
148	0x3bd3f4ca	0.00646839
149	0x3c1b7c1c	0.009490039
150	0xbd06e4f5	-0.032933194
151	0x3b0d0166	0.0021515726
152	0xbb083ac4	-0.002078698
153	0xbd294c51	-0.041332547
154	0xbc825f91	-0.01591471
155	0x3cb0903d	0.021553153
156	0xbabded65	-0.0014490305
157	0x3d4e3231	0.050340835
158	0x3bb19627	0.005419511
159	0x3d4a8052	0.049438782
160	0xbc593269	-0.013256648
161	0xbd8fcc1d	-0.070213534
162	0xbc5a3b4b	-0.013319801
163	0xbc922023	-0.01783759
164	0xbc378b31	-0.011202619
165	0x3d4201f4	0.047365144
166	0x3d56f70d	0.0524817
167	0xbc61e97d	-0.013788578
168	0x3d1a4206	0.03766062
169	0x3d96ffeb	0.07373031
170	0xbc324447	-0.010880536
171	0xbd3c11c2	-0.045915373
172	0x3d2b9357	0.04188856
173	0x3cc42dda	0.023947645
174	0xbc716144	-0.014732663
175	0xbcc07c3b	-0.023496738
176	0x3c7cb7ec	0.01542471
177	0x3be0abba	0.006856409
178	0x3c13655b	0.008996333
179	0xbd52ea1a	-0.051492788
180	0x3c819685	0.015818844
181	0x3c27b71b	0.010236527
182	0xbce681ee	-0.028138127
183	0xbb916ef8	-0.0044382773
184	0xbb280432	-0.0025637266
185	0xbd5b304d	-0.05351286
186	0xbcd58664	-0.026065059
187	0x3cf16b95	0.029470244
188	0x3c79930c	0.015232813
189	0x3d6ac98d	0.05732112
190	0x3bbceee0	0.005765781
191	0x3d72e7e3	0.059303176
192	0xbbf989f6	-0.007615323
193	0xbdc14910	-0.09437764
194	0x3c569364	0.013096664
195	0xbcdcfa55	-0.026974836
196	0xbc4b4a4f	-0.012407853
197	0x3d200843	0.03907038
198	0x3d6b48a6	0.05744233
199	0xbb87e01d	-0.0041465894
200	0x3d3bbef5	0.045836408
201	0x3d7096f9	0.05873773
202	0xbb939940	-0.004504353
203	0xbd4a2aa9	-0.04935709
204	0x3ced2bb6	0.028951507
205	0x3d1779fc	0.036981568
206	0xbb50e9c7	-0.0031877623
207	0x3b03a9db	0.0020090255
208	0x3c7ffe11	0.015624539
209	0x3c0a2704	0.008432154
210	0x3befae7b	0.007314501
211	0xbd2e618e	-0.042573504
212	0x3c1b0bf9	0.009463304
213	0x3c65b74e	0.014020754
214	0xbd066458	-0.03281054
215	0xbc8bcf36	-0.01706658
216	0xbc5c2525	-0.01343659
217	0xbd860df7	-0.06545632
218	0xbd0ee044	-0.034881845
219	0x3d192f2e	0.03739851
220	0x3c669b09	0.014075049
221	0x3d859b52	0.065237656
222	0x3c20cd3e	0.009814559
223	0x3db605a3	0.08887794
224	0x3c008ca8	0.007846035
225	0x3d4ae4e8	0.04953471
226	0x3ca81075	0.02051566
227	0x3af00183	0.0018310997
228	0x3b997e7b	0.004684267
229	0xbd2a8490	-0.041630328
230	0xbd1e48e3	-0.03864373
231	0x3c4615ed	0.012090188
232	0xbce66966	-0.02812643
233	0xbd8cf8a7	-0.06883364
234	0x3c3d74bf	0.011563479
235	0x3d18d059	0.03730807
236	0xbd1b1a6f	-0.037867006
237	0xbc2569b8	-0.010096006
238	0x3c3f5748	0.011678524
239	0x3c7972a9	0.015225091
240	0xbb180f0a	-0.0023202323
241	0xbca57888	-0.020199075
242	0xbc1eb226	-0.009686029
243	0x3cc14b76	0.023595553
244	0xbb8bd01e	-0.004266753
245	0xbbd4819c	-0.006485177
246	0x3cf30e4e	0.029669907
247	0x3c04cf81	0.008106113
248	0xbaebfd52	-0.0018004572
249	0x3d3b72be	0.045763724
250	0x3c226038	0.009910636
251	0xbc7d54c0	-0.0154621005
252	0x3abd4f80	0.0014443249
253	0xbd145083	-0.036209594
254	0x3b304362	0.0026895632
255	0xbd1797d2	-0.03701002

context_transformer_0/ffn_layer_0/intermediate_dense/einsum/Einsum;context_transformer_0/ffn_layer_0/intermediate_dense/Relu;context_transformer_0/ffn_layer_0/intermediate_dense/add f4 [32]
0	0xbe81c485	-0.25345245
1	0xbea29a2c	-0.3175825
2	0xbef9b1f1	-0.4876857
3	0xbe731d15	-0.23741563
4	0xbe8b0e7b	-0.27159485
5	0xbe56a9bb	-0.20963185
6	0xbeacb193	-0.33729228
7	0xbee24d4f	-0.44199607
8	0xbe8fe9b5	-0.28107992
9	0xbe9b0c24	-0.302827
10	0xbead51d0	-0.3385148
11	0xbe47bb26	-0.19504985
12	0xbe903276	-0.281635
13	0xbebd7c4b	-0.3700889
14	0xbeb0661a	-0.34452897
15	0xbe275eb2	-0.16344717
16	0xbea1014a	-0.31446296
17	0xbe55aad7	-0.20865951
18	0xbe74aca6	-0.23893985
19	0xbf058e39	-0.5217014
20	0xbe8ab776	-0.27093095
21	0xbe5a67d2	-0.21328667
22	0xbeb529c9	-0.35383442
23	0xbe34273d	-0.17593093
24	0xbe762658	-0.24038064
25	0xbe213829	-0.1574408
26	0xbed3b69a	-0.4135025
27	0xbe7607a7	-0.24026357
28	0xbebcfab2	-0.36910015
29	0xbe671446	-0.22566327
30	0xbec7d550	-0.39029932
31	0xbeb87bdc	-0.36031997

context_transformer_0/attention/norm/mul;context_transformer_0/attention/norm/add;context_transformer_0/ffn_layer_0/intermediate_dense/einsum/Einsum;context_transformer_0/ffn_layer_0/intermediate_dense/Relu;context_transformer_0/ffn_layer_0/intermediate_dense/add f4 [32, 32]
0	0xbd05918f	-0.03260952
1	0xbd987d07	-0.07445722
2	0x3e2f9c4c	0.17149466
3	0x3c891b27	0.01673658
4	0xbe5e55a7	-0.21712361
5	0x3dc763a2	0.097358
6	0xbccaf116	-0.024773162
7	0xbe2704b8	-0.16310394
8	0xbd490c43	-0.04908396
9	0x3e9256a5	0.2858173
10	0x3e3913b0	0.18073916
11	0xbe563243	-0.20917611
12	0xbe87b4e5	-0.265052
13	0x3e0bcb7c	0.13651842
14	0xbdcb80d5	-0.09936682
15	0xbd87714d	-0.06613407
16	0x3e3ee5fb	0.18642418
17	0x3e50ea39	0.20401849
18	0x3d963266	0.073338315
19	0x3e04fc41	0.12986852
20	0xbcc62ddb	-0.024191787
21	0xbd33a4d3	-0.04385836
22	0xbde987fb	-0.11402889
23	0x3d962723	0.073316835
24	0x3df7bcb1	0.12096537
25	0x3db25cb7	0.0870909
26	0xbd5ed45a	-0.054401733
27	0xbe81569d	-0.25261393
28	0xbd9c2642	-0.076244846
29	0xbe05a280	-0.1305027
30	0xbe5af40e	-0.21382162
31	0x3e8296b3	0.255056
32	0xbe924d79	-0.28574732
33	0xbd230b05	-0.03980543
34	0x3d89bb67	0.06725197
35	0x3dbdcd87	0.09267717
36	0xbdb58ff0	-0.088653445
37	0xbe0a175c	-0.13485473
38	0x3cc3ab21	0.023885312
39	0x3e320bfe	0.17387387
40	0xbdf6391b	-0.12022611
41	0x3deb551b	0.11490842
42	0x3c33c39a	0.010971928
43	0xbdafd0a5	-0.08584718
44	0xbd68fad1	-0.056879822
45	0x3d5009a3	0.05079044
46	0x3d41c73c	0.047309145
47	0xbc1b2b27	-0.009470738
48	0xbe091802	-0.13388065
49	0x3e9fe368	0.31228185
50	0xbd39eeef	-0.04539388
51	0xbdc39456	-0.09549777
52	0x3dacc107	0.084352545
53	0xbd9cf279	-0.076634355
54	0xbdbc6c3c	-0.092003316
55	0x3d8879fd	0.066638924
56	0x3cdbd3db	0.026834419
57	0x3e70eb70	0.23527312
58	0x3e12f151	0.14349867
59	0x3d33deb7	0.04391357
60	0xbcd71351	-0.026254328
61	0xbca8feb1	-0.020629259
62	0xbe3e5669	-0.1858765
63	0x3ed918dc	0.4240178
64	0xbd8a9a99	-0.067677684
65	0xbd09c79f	-0.03363764
66	0x3e9ce73d	0.3064517
67	0xbe466ac7	-0.1937667
68	0xbdcf2229	-0.101139374
69	0xbed4625c	-0.41481292
70	0xbcfc002a	-0.030761797
71	0x3b136eee	0.002249654
72	0x3e0ebf12	0.13940075
73	0xbeb9cb92	-0.36288124
74	0x3d5429ae	0.05179756
75	0xbe2cfb94	-0.16892844
76	0x3e0ee401	0.13954164
77	0x3d10e36a	0.03537313
78	0x3d364c3c	0.044506297
79	0xbcfaef8c	-0.030631803
80	0x3e26796f	0.1625726
81	0x3e25c6c3	0.16189103
82	0x3d8e5173	0.06949129
83	0xbd2a739a	-0.041614152
84	0xbd236938	-0.039895266
85	0xbd817dc0	-0.06322813
86	0xbaa8cf36	-0.0012879136
87	0x3df01f1d	0.117246844
88	0x3e65cfcf	0.22442554
89	0x3e6918a9	0.22763313
90	0x3e356640	0.17714787
91	0x3d953b5f	0.07286715
92	0x3dc9b093	0.09848132
93	0xbe91f52e	-0.2850737
94	0xbe4fe256	-0.20301184
95	0x3ec7d850	0.3903222
96	0x3e1eab89	0.15495123
97	0xbe1c5cef	-0.15269826
98	0x3dade4af	0.084908836
99	0x3d0fc8b2	0.035103507
100	0x3d6ffff8	0.05859372
101	0xbe605a97	-0.21909557
102	0x3cdde7ac	0.027088009
103	0x3d66c2f2	0.056338258
104	0xbe06dfff	-0.13171385
105	0xbf24c26d	-0.6435917
106	0xbc88ae84	-0.016684778
107	0xbe016842	-0.12637427
108	0xbdd1059a	-0.102061465
109	0x3e42fbb5	0.19041331
110	0xbcd74117	-0.026276154
111	0xbe57ecd1	-0.21086432
112	0x3e645ca6	0.22300968
113	0x3e1f02d9	0.1552843
114	0xbde2e659	-0.110790916
115	0x3c602fed	0.013683301
116	0xbdcded50	-0.100550294
117	0xbdce11c2	-0.10061981
118	0xbe9e9459	-0.30972555
119	0x3dc00b47	0.09377151
120	0x3ec944b0	0.39310217
121	0x3e8dafaf	0.27673098
122	0xbe667282	-0.22504619
123	0xbdf2257f	-0.11823558
124	0x3dd8c10a	0.10583694
125	0xbf0c9d50	-0.5492754
126	0x3d1982c3	0.03747822
127	0x3e7249e8	0.23661005
128	0x3d6ff63f	0.058584448
129	0x3e5129a8	0.20426047
130	0x3e2e53a5	0.17024095
131	0x3e69f662	0.22847894
132	0x3e4766ca	0.19472805
133	0xbd479362	-0.04872454
134	0xbd4e8983	-0.05042411
135	0x3e737432	0.23774794
136	0x3d632f88	0.05546525
137	0x3e3b9c4c	0.18321341
138	0xbd05f4b9	-0.03270409
139	0xbd89d4b4	-0.06730023
140	0x3e9218d2	0.2853456
141	0xbd151b3b	-0.036402922
142	0xbd52ff4c	-0.051513
143	0x3e7da8de	0.24771449
144	0x3e656910	0.2240336
145	0x3dbc6a07	0.091999106
146	0xbdbc2a32	-0.091877356
147	0x3dc95701	0.09831048
148	0x3e201ae2	0.15635255
149	0xbe2085a4	-0.1567598
150	0x3d4e174f	0.050315198
151	0xbdc518e6	-0.096238896
152	0x3f02a40d	0.5103157
153	0xbe4984f1	-0.1967962
154	0x3e965f74	0.293697
155	0x3d7a00f1	0.061036054
156	0xbe28693f	-0.16446398
157	0xbe29def3	-0.16588955
158	0x3e099873	0.13437061
159	0x3e2585f9	0.16164388
160	0xbe389b30	-0.1802795
161	0x3eba174a	0.36345893
162	0xbbe63ab5	-0.0070260414
163	0x3c8efeec	0.01745554
164	0x3e8f9333	0.28041992
165	0x3b23397f	0.0024906097
166	0xbf2db374	-0.6785195
167	0x3d4dce38	0.050245494
168	0xbec19043	-0.37805375
169	0xbce76fc8	-0.028251544
170	0xbe0e16bc	-0.1387586
171	0x3baf6a9d	0.0053532855
172	0x3d8abf74	0.06774798
173	0xbd0dce10	-0.034620345
174	0xbe052518	-0.13002431
175	0xbd4b7d5a	-0.04968009
176	0x3d9a7221	0.075412996
177	0x3e102f40	0.14080524
178	0x3d9c0106	0.07617383
179	0xbb81ec58	-0.003964942
180	0x3ebc5a89	0.36787823
181	0xbe067c43	-0.1313334
182	0xbe1bd1be	-0.15216729
183	0x3e117297	0.14203869
184	0x3ddc5954	0.107592255
185	0x3e6ac43b	0.22926418
186	0x3d6d28c9	0.057900224
187	0x3e8e0be9	0.27743462
188	0x3ea535b4	0.32267535
189	0xbe1fc6cd	-0.1560318
190	0x3de3ef71	0.11129654
191	0x3df73f10	0.12072575
192	0x3c65a132	0.014015483
193	0x3d4fc649	0.05072621
194	0x3ea3e0eb	0.32007536
195	0xbda9c51b	-0.08289548
196	0x3ca8b907	0.02059604
197	0xbea0eb9b	-0.31429753
198	0x3d70f4a8	0.058827072
199	0xbd194971	-0.037423555
200	0xbde87bf2	-0.11351766
201	0x3d801330	0.0625366
202	0xbdbaeb1e	-0.09126876
203	0x3c36506e	0.011127574
204	0x3e99f46e	0.30069298
205	0xbd42ede7	-0.047590163
206	0xbe32fc67	-0.17479096
207	0x3e4c8bc9	0.19975199
208	0x3dcdf380	0.100562096
209	0x3dd4f6e5	0.10398654
210	0x3dcee411	0.10102094
211	0x3bfa3b44	0.0076364595
212	0x389daf87	7.519038e-05
213	0xbe2726ae	-0.16323349
214	0xbd830a51	-0.06398452
215	0x3ea1797e	0.31538004
216	0x3ef0dab5	0.4704186
217	0xbdddd63c	-0.108318776
218	0x3e38ab5d	0.1803412
219	0xbe109ef8	-0.14123142
220	0xbded5dce	-0.115901574
221	0x3ccb8eeb	0.024848422
222	0xbcd20480	-0.025636911
223	0x3e8762f9	0.26442698
224	0xbcfdc878	-0.03097938
225	0xbd26c3dc	-0.04071413
226	0x3e62c995	0.2214721
227	0xbea827c9	-0.32842854
228	0xbe4c7bf1	-0.19969155
229	0xbedf5b74	-0.4362446
230	0xbd1e3d9f	-0.038632985
231	0xbd5a2b0a	-0.0532637
232	0x3dcc1b2b	0.099661194
233	0xbed959cf	-0.4245133
234	0x3d41ac7f	0.047283646
235	0xbe0c3552	-0.13692215
236	0x3d8d6d37	0.06905597
237	0x3d93109a	0.07180901
238	0xbc9150fc	-0.017738812
239	0xbe005f13	-0.12536268
240	0x3e5838aa	0.21115366
241	0x3e27399c	0.1633057
242	0x3dab3212	0.083591595
243	0xbd1f780f	-0.038932856
244	0xbe41d99b	-0.18930666
245	0xbe27623d	-0.16346069
246	0xbd9c72c3	-0.076390766
247	0x3e2ab219	0.16669501
248	0x3e90f92f	0.28315112
249	0x3e553fd6	0.20825133
250	0x3e5ec1c1	0.21753599
251	0x3bfce3ff	0.007717609
252	0x3e13a935	0.14420016
253	0xbe97d9b8	-0.29658294
254	0xbe5fe7cf	-0.21865772
255	0x3ec4f970	0.38471556

context_transformer_0/ffn_layer_1/intermediate_dense/einsum/Einsum;context_transformer_0/ffn_layer_1/intermediate_dense/Relu;context_transformer_0/ffn_layer_1/intermediate_dense/add f4 [32]
0	0xbd5ef18f	-0.054429587
1	0xbd67e5f1	-0.056615774
2	0xbec1fcaf	-0.37888095
3	0xbdd5f9b0	-0.10448015
4	0xbe01ecd7	-0.12688003
5	0xbead6b17	-0.33870766
6	0x3e658d94	0.22417289
7	0xbea0ff31	-0.31444696
8	0xbdf4dff7	-0.119567804
9	0xbea2b2f8	-0.31777167
10	0xbef4a7be	-0.47784227
11	0xbd97f3bf	-0.07419538
12	0xbe4492a4	-0.19196564
13	0xbe92676d	-0.28594533
14	0xbe429e33	-0.1900566
15	0xbeaef8bf	-0.34174153
16	0x3e0a728d	0.1352026
17	0xbe7c8273	-0.24659137
18	0xbeab5337	-0.33461925
19	0xbe35fa9e	-0.17771384
20	0xbe10cc7a	-0.14140502
21	0xbd752757	-0.05985197
22	0xbdf51519	-0.11966915
23	0x3e62747d	0.22114749
24	0xbde2aaaa	-0.11067708
25	0xbdb19836	-0.0867161
26	0xbea75dbc	-0.326887
27	0xbe252ab2	-0.16129568
28	0xbe4fb018	-0.20282018
29	0x3da41ee0	0.080137014
30	0xbdbda8dd	-0.09260724
31	0xbcbefabc	-0.023312919

context_transformer_0/ffn_layer_0/norm/mul;context_transformer_0/ffn_layer_0/norm/add;context_transformer_0/ffn_layer_1/intermediate_dense/einsum/Einsum;context_transformer_0/ffn_layer_1/intermediate_dense/Relu;context_transformer_0/ffn_layer_1/intermediate_dense/add f4 [32, 32]
0	0xbe89c494	-0.2690779
1	0xbe0bd85d	-0.13656755
2	0x3bb7f0e7	0.0056134346
3	0x3db3b35d	0.08774445
4	0x3d342084	0.04397632
5	0xbdf68ac1	-0.12038184
6	0xbe42e8a1	-0.19034053
7	0x3dddc72e	0.10829006
8	0x3e1fa1e3	0.15589099
9	0x3d89a1ab	0.06720289
10	0xbca976da	-0.020686556
11	0xbdac4c9f	-0.08413052
12	0x3ccb4933	0.024815178
13	0x3b41d8f7	0.0029578784
14	0x3d29ceae	0.04145687
15	0x3eb995b2	0.3624702
16	0x3ec2d5d9	0.38053778
17	0x3e599e43	0.21251778
18	0xbdb0f039	-0.08639569
19	0x3e4924f1	0.19642998
20	0xbdfd2a96	-0.12361638
21	0xbdc38304	-0.095464736
22	0x3d837048	0.064179
23	0xbe8d1152	-0.27552277
24	0x3ef3279b	0.47491154
25	0xbeab37de	-0.3344106
26	0x3d62f41e	0.05540859
27	0xbe9431b9	-0.28944185
28	0xbe0ade97	-0.13561474
29	0xbeb3f3fe	-0.3514709
30	0xbea9d1af	-0.33167788
31	0x3d558bd7	0.052135315
32	0xbc16c6f0	-0.009202704
33	0xbd8890fa	-0.06668277
34	0x3d9deb1a	0.07710858
35	0xbdcb486e	-0.09925924
36	0xbdcdd089	-0.100495405
37	0xbcaabb23	-0.020841187
38	0xbe593c41	-0.21214391
39	0x3e6a2c56	0.22868475
40	0xbe04b91c	-0.12961239
41	0x3d2b87bc	0.041877493
42	0x3d8e77af	0.069564216
43	0xbd74be2f	-0.059751686
44	0xbe1313ab	-0.14362971
45	0x3e2cba0a	0.16867843
46	0x3e24e45a	0.16102734
47	0xbd8110f6	-0.06302063
48	0x3d323cfa	0.043515183
49	0xbe0ae0ce	-0.13562319
50	0xbcc83f73	-0.024444317
51	0xbd626dfa	-0.055280663
52	0x3e466864	0.1937576
53	0xbe95542a	-0.29165775
54	0xbda699d8	-0.08134812
55	0xbe1411c6	-0.14459905
56	0xbb7c0d00	-0.0038459897
57	0xbf433911	-0.7625895
58	0x3e0dd114	0.13849288
59	0xbe2a8bc9	-0.16654886
60	0xbe7f3086	-0.24920854
61	0xbe39237e	-0.18079945
62	0x3df1790e	0.117906675
63	0x3df150e0	0.11783004
64	0x3ca2b01f	0.019859372
65	0xbd0f0f24	-0.03492655
66	0x3dc3f826	0.09568815
67	0xbdb64f04	-0.0890179
68	0xbe46528f	-0.19367431
69	0xbda468c9	-0.08027799
70	0xbe9790a2	-0.29602534
71	0xbda4faef	-0.08055674
72	0xbdae3378	-0.08505911
73	0x3e9c6a19	0.30549696
74	0x3e231ce3	0.15928988
75	0xbe01a86e	-0.12661907
76	0x3e094b70	0.13407683
77	0x3dae783b	0.08519026
78	0x3d5d1dd6	0.053983532
79	0xbc7f8c6f	-0.015597447
80	0xbe418a10	-0.18900323
81	0x3d0062fb	0.031344395
82	0x3d01ee3c	0.03172134
83	0xbe14fbd9	-0.14549197
84	0xbdcacb44	-0.09902051
85	0x3daf6d7d	0.08565805
86	0xbd52bada	-0.051447727
87	0x3d09c02d	0.03363054
88	0xbda4048b	-0.08008679
89	0x3ccdfb77	0.025144322
90	0xbd4646a8	-0.048407227
91	0xbd861225	-0.065464295
92	0x3c222c61	0.009898276
93	0xbe191fa4	-0.14953476
94	0xbe16214c	-0.14661139
95	0x3e1d9498	0.15388715
96	0xbd2ce5b5	-0.042211253
97	0xbd15404f	-0.036438283
98	0x3d47a35b	0.048739772
99	0xbd148ebb	-0.03626893
100	0xbda07b0d	-0.0783597
101	0xbdaa7136	-0.083223745
102	0xbc07fa6a	-0.008299449
103	0xbd9fa460	-0.07795024
104	0x3c99b3d7	0.018762512
105	0x3d9b95ec	0.07596955
106	0x3bd2cdb9	0.0064332155
107	0xbca9c221	-0.02072245
108	0x3d952eb8	0.072843015
109	0x3c8a1e2c	0.01686009
110	0x3d40ce7e	0.047071926
111	0x3d3c1fab	0.04592864
112	0xbc011079	-0.007877463
113	0x3c4bb256	0.012432655
114	0xbdc6b9dd	-0.09703419
115	0x3c3e97ce	0.011632873
116	0xbcd19920	-0.025585711
117	0xbda785a4	-0.08179787
118	0xbd7e8389	-0.06213716
119	0xbc89b972	-0.01681206
120	0xbc86b773	-0.016444897
121	0xbd399ccb	-0.045315545
122	0x3d7d8adf	0.061900016
123	0xbe5c3871	-0.21505906
124	0x3c39bc4e	0.011336399
125	0x3d685bcd	0.056728173
126	0xbde73335	-0.11289064
127	0x3c90613e	0.017624494
128	0xbc1e12c8	-0.0096480325
129	0xbcd03b96	-0.025419038
130	0x3bba2f7a	0.005681929
131	0x3c9a18c5	0.01881064
132	0x3baa2589	0.005192463
133	0x3c16fb6f	0.00921522
134	0xbcfe2aec	-0.031026326
135	0x3cb8b1dc	0.022545747
136	0x3cf37666	0.029719543
137	0xbd3a6e51	-0.045515362
138	0x3cc918c0	0.024547935
139	0xbd1c484f	-0.038154896
140	0xbd5325eb	-0.051549833
141	0xbc66209f	-0.014045863
142	0x3bc40c5c	0.0059829187
143	0xbccf353b	-0.025293937
144	0x3c87cb76	0.01657651
145	0xbbda995b	-0.0066711134
146	0xbd09fa50	-0.033685982
147	0xbc48e0d4	-0.012260634
148	0x3caa6383	0.020799404
149	0xbd251d52	-0.040311165
150	0x3c9bd6b6	0.01902328
151	0xbd26d00c	-0.040725753
152	0x3cba7485	0.022760639
153	0xbd2b9a2e	-0.041895084
154	0xbc3965ba	-0.011315757
155	0xbd55ee7b	-0.052229386
156	0xbd33652b	-0.043797653
157	0xbcbe3d4d	-0.02322259
158	0x3d60b3c8	0.054858953
159	0x3c7b7d7d	0.015349743
160	0xbe38ac35	-0.18034442
161	0x3e25561b	0.16146128
162	0x3d84920e	0.0647317
163	0x3c8d8fc6	0.01728047
164	0x3da9915a	0.08279677
165	0x3d7727f2	0.06034083
166	0xbe8033a7	-0.25039408
167	0xbe282fc6	-0.16424474
168	0x3d27fb02	0.041010864
169	0xbe4458c2	-0.19174483
170	0x3e974573	0.29545173
171	0x3dc5d0a1	0.096589334
172	0x3df7152a	0.120645836
173	0xbd24d4d4	-0.04024203
174	0x3e0630fc	0.13104624
175	0xbe296183	-0.16541104
176	0xbe70ea40	-0.2352686
177	0x3d0cb799	0.03435478
178	0x3dd8ece9	0.10592062
179	0xbdb489a4	-0.08815315
180	0xbe1157a9	-0.14193596
181	0x3e8bac93	0.272801
182	0x3e534377	0.20631205
183	0xbb02bd36	-0.0019949204
184	0xbce1639a	-0.027513314
185	0xbe28ffb6	-0.16503796
186	0xbd9ecfa1	-0.07754446
187	0x3d5e90da	0.05433736
188	0xbe4f496d	-0.20242853
189	0x3dbe8027	0.09301787
190	0x3d6fd9a8	0.058557183
191	0xbd8bd3ac	-0.068274826
192	0x3e70d037	0.23516928
193	0xbcba2554	-0.022722878
194	0x3d8ffb47	0.07030349
195	0x3dc25465	0.09488753
196	0x3e0c0f47	0.13677703
197	0xbea1b908	-0.3158648
198	0x3d5120a4	0.05105652
199	0xbda570e8	-0.08078176
200	0xbe60c79a	-0.21951142
201	0x3e058366	0.13038406
202	0xbdffac35	-0.12484018
203	0xbd3fed95	-0.046857435
204	0x3dd464a7	0.103707604
205	0xbcef52d4	-0.0292143
206	0xbe594c2f	-0.21220468
207	0xbe274e98	-0.16338575
208	0x3eaa8a81	0.33308795
209	0x3daa0782	0.08302213
210	0xbe078fb1	-0.13238408
211	0x3e49a80b	0.1969301
212	0x3e681095	0.22662576
213	0xbe40f06e	-0.18841717
214	0xbd4cd8e1	-0.05001152
215	0x3ea1e499	0.3161972
216	0x3ed5579c	0.41668403
217	0x3e377023	0.1791387
218	0xbdc676fd	-0.09690664
219	0xbd83963a	-0.06425138
220	0x3dd8edd0	0.10592234
221	0xbdc61047	-0.096710734
222	0xbe0824b9	-0.13295259
223	0x3eec06c6	0.46098918
224	0xbe051080	-0.12994576
225	0xbc751ab8	-0.0149599835
226	0xbd1cf411	-0.038318697
227	0x3e67adf9	0.22624959
228	0x3c5de395	0.013543029
229	0x3e27c1d2	0.1638253
230	0xbe00d62d	-0.12581702
231	0xbdca40fd	-0.09875677
232	0x3e17bc90	0.14818025
233	0x3ea00a7d	0.31258002
234	0x3ea8284b	0.3284324
235	0x3d794c55	0.06086381
236	0xbd56b644	-0.052419916
237	0xbdde86f8	-0.10865587
238	0x3d5562a7	0.052096035
239	0xbe63d9ad	-0.22251005
240	0xbe2d857b	-0.1694545
241	0x3d86f426	0.06589536
242	0x3dd88128	0.105715096
243	0x3dac67b3	0.084182166
244	0xbd8192ea	-0.0632685
245	0x3eb774e5	0.3583137
246	0xbc8ff2a8	-0.017571762
247	0xbde163f2	-0.11005391
248	0x3d8c5074	0.06851283
249	0xbe7ceed4	-0.2470048
250	0x3e20ecde	0.15715358
251	0xbbebadf0	-0.007192366
252	0xbe34b732	-0.17648008
253	0x3dd9d1d1	0.106357224
254	0x3da937df	0.0826261
255	0xbd8a950d	-0.067667104

context_transformer_0/ffn_layer_2/intermediate_dense/einsum/Einsum;context_transformer_0/ffn_layer_2/intermediate_dense/Relu;context_transformer_0/ffn_layer_2/intermediate_dense/add f4 [32]
0	0xbe86ee9c	-0.2635392
1	0xbd87ec2b	-0.06636842
2	0xbe22fe8a	-0.15917411
3	0xbe274960	-0.16336584
4	0xbdb0a6e4	-0.08625582
5	0xbe479438	-0.19490135
6	0xbda8c3a5	-0.08240441
7	0xbea91b5c	-0.33028686
8	0xbe673e30	-0.22582316
9	0xbdf8155c	-0.12113449
10	0x3de26e65	0.11056212
11	0xbe678628	-0.2260977
12	0xbda4b59b	-0.08042451
13	0x3babcb95	0.0052427747
14	0x3c6d5227	0.014484919
15	0x3bf96fdc	0.0076122116
16	0x3c2d6e63	0.0105854
17	0xbe788d0d	-0.24272557
18	0x3be4b401	0.006979466
19	0xbcdd8767	-0.027042104
20	0xbd2f30fa	-0.042771317
21	0xbe77c9d8	-0.24198091
22	0xbdf3cac1	-0.119039066
23	0xbd85569f	-0.06510662
24	0xbe20efde	-0.15716502
25	0xbee50e60	-0.4473753
26	0xbe1629aa	-0.14664331
27	0xbe677564	-0.22603375
28	0xbe6465ac	-0.2230441
29	0x3e705aa7	0.23472081
30	0xbe8f5178	-0.27991843
31	0xbe23eb21	-0.16007663

context_transformer_0/ffn_layer_1/norm/mul;context_transformer_0/ffn_layer_1/norm/add;context_transformer_0/ffn_layer_2/intermediate_dense/einsum/Einsum;context_transformer_0/ffn_layer_2/intermediate_dense/Relu;context_transformer_0/ffn_layer_2/intermediate_dense/add f4 [32, 32]
0	0x3e58e089	0.21179403
1	0xbdf6189f	-0.12016415
2	0x3d26a47e	0.040684216
3	0x3e219c2a	0.15782228
4	0xbe8cb46e	-0.27481407
5	0xbe2129e8	-0.15738642
6	0xbe5735bd	-0.21016593
7	0xbe632f4c	-0.22186011
8	0x3da5f7f9	0.08103938
9	0xbdc24b2a	-0.09486993
10	0x3b848d6e	0.00404518
11	0x3e0e0215	0.13867982
12	0xbde17060	-0.11007762
13	0x3e1194ab	0.14216869
14	0x3e598883	0.21243481
15	0x3e6c4395	0.23072655
16	0x3cd29e60	0.025710285
17	0xbd2e5eea	-0.042570986
18	0xbd96344e	-0.07334195
19	0xbe38376b	-0.1798989
20	0xbdb7f0b9	-0.08981461
21	0xbe530500	-0.20607376
22	0xbd66f1b5	-0.056382854
23	0x3e882fc1	0.26598933
24	0xbbbeeb44	-0.0058263857
25	0xbf278c8c	-0.6544883
26	0xbdbd74c4	-0.09250787
27	0xbe0bdb5c	-0.13657898
28	0xbdbde0ad	-0.09271369
29	0xbd953582	-0.072855964
30	0xbe9e3287	-0.30897924
31	0xbd210829	-0.039314423
32	0xbc046154	-0.008079845
33	0x3c5381c3	0.012909356
34	0xbb54bc0b	-0.0032460715
35	0xbb509fae	-0.0031833458
36	0x3c68620d	0.014183533
37	0xbbbedc85	-0.005824628
38	0xbac0f2ca	-0.0014720794
39	0xbc321c44	-0.010870997
40	0x3c08139e	0.008305458
41	0x3c1d63fc	0.009606358
42	0xbb970fa9	-0.004610021
43	0xbcb131f3	-0.021630263
44	0x3b51b3ea	0.0031998106
45	0xbc0a7800	-0.008451462
46	0x3bbc2ea2	0.0057428638
47	0x3b2a5159	0.0025988428
48	0x3c298e4f	0.01034887
49	0x3c6ae1e1	0.01433608
50	0xbb510a3a	-0.0031896965
51	0xbbb472e5	-0.0055068606
52	0x3c00f64e	0.007871224
53	0x3abff660	0.0014645569
54	0x3c5caa22	0.013468297
55	0x3aaed7fb	0.0013339514
56	0x3bdba548	0.0067030527
57	0xbc9aa4b9	-0.018877374
58	0x3c68ff80	0.014221072
59	0xbbae135a	-0.0053123655
60	0x3ba8dfe7	0.0051536444
61	0x3bb6928d	0.0055716694
62	0xbc711813	-0.014715212
63	0x3c9529bd	0.018208379
64	0xbd2973fd	-0.04137038
65	0x3bca9df3	0.00618338
66	0x3ccb4019	0.024810838
67	0x3cbd8d7f	0.02313876
68	0x3b9fb6c6	0.004874083
69	0xbc8b591c	-0.017010264
70	0xbcb2a590	-0.021807462
71	0xbcd45622	-0.025919978
72	0xbc5379b5	-0.012907435
73	0xbc09c64f	-0.008409097
74	0x3cab981e	0.020946559
75	0xbcaa222e	-0.020768251
76	0x3c8f5769	0.017497735
77	0x3bc4d075	0.0060062953
78	0xbb9758fe	-0.004618763
79	0x3c8e5793	0.017375743
80	0x3ca464f2	0.020067666
81	0x3d177e66	0.036985777
82	0x3aa71486	0.0012747205
83	0xbcf8e24a	-0.03038134
84	0x3c304e5f	0.010760873
85	0x3c8e4368	0.017366126
86	0x3b120e86	0.0022286489
87	0x3bb50ed5	0.0055254498
88	0x3d85c0fd	0.0653095
89	0xbd099286	-0.033587
90	0x3c46887f	0.012117504
91	0x3b7a01d5	0.0038148065
92	0x3cae2406	0.021257412
93	0x3baaba0c	0.005210167
94	0xbcbb4993	-0.022862231
95	0x3d0d83b5	0.034549434
96	0x3c1df997	0.009642026
97	0x3cacc813	0.021091497
98	0xbce06c8e	-0.027395513
99	0x3c47e158	0.012199722
100	0xbc87283c	-0.016498677
101	0xbc1af2e9	-0.009457328
102	0x3b68e09d	0.003553427
103	0xbb8c5fe9	-0.0042838943
104	0xbc695eb4	-0.01424377
105	0xbc60bb66	-0.013716554
106	0x3c287946	0.01028282
107	0xbc3b24f2	-0.011422383
108	0xbc59ba61	-0.013289065
109	0x3b6f0d63	0.0036476485
110	0xbd078491	-0.03308541
111	0x3c525dc2	0.012839736
112	0x3d19ce9a	0.037550546
113	0x3c56dfb8	0.013114862
114	0xbab2e0a2	-0.0013647268
115	0x3cebf8cf	0.028805165
116	0x3b9a30e5	0.0047055357
117	0xbccbc1ce	-0.024872687
118	0x3c7c64bf	0.015404879
119	0xbcc98371	-0.024598809
120	0x3d52a975	0.051431138
121	0xbd83a5d6	-0.06428115
122	0x3b00d6ee	0.0019659358
123	0xbd0c02a3	-0.034182202
124	0xbcf12ddc	-0.029440813
125	0x3b965fc5	0.0045890533
126	0xbcdc37fc	-0.026882164
127	0x3cb07fcd	0.021545315
128	0xbd67418f	-0.056459006
129	0x3e09ce93	0.13457708
130	0x3cc4b3b0	0.024011463
131	0x3d746269	0.059664164
132	0xbd388511	-0.045048777
133	0xbb923d96	-0.004462908
134	0xbde5d1ed	-0.11221681
135	0x3d9aec35	0.07564584
136	0x3dd2700f	0.1027528
137	0x3d8ff762	0.070296064
138	0x3d9470c6	0.07248072
139	0xbc8fa976	-0.01753686
140	0x3d953c8d	0.0728694
141	0x3c4fe3aa	0.012688557
142	0x3df900d1	0.12158359
143	0x3cde7b36	0.02715836
144	0x3dc01f6c	0.09380993
145	0x3dd82e07	0.10555654
146	0xbd54be93	-0.05193956
147	0x3cacff42	0.02111781
148	0xbcc92f7b	-0.024558773
149	0x3cde90f4	0.027168728
150	0x3c559f7b	0.013038511
151	0xbd7ee1eb	-0.06222717
152	0xbb27418d	-0.002552125
153	0x3c104cf5	0.0088074105
154	0x3d202336	0.03909608
155	0xbe00c99f	-0.12576912
156	0xbda4ca28	-0.08046371
157	0xbd36dd31	-0.04464454
158	0xbd5c7bd1	-0.053829018
159	0x3c462485	0.012093668
160	0x3d4cb372	0.04997582
161	0x3e9061d6	0.28199643
162	0x3d2c2c75	0.042034585
163	0xbde7cc6f	-0.113182895
164	0xbdf103fb	-0.11768337
165	0xbd26c7bc	-0.040717825
166	0x3ded7cdb	0.1159608
167	0xbd3f5216	-0.046709143
168	0xbd01a351	-0.03164989
169	0x3d09d6a3	0.03365196
170	0xbe3044ea	-0.17213789
171	0x3e478a1d	0.1948628
172	0xbc6b3135	-0.014354994
173	0xbe30a71f	-0.17251252
174	0x3de76718	0.112989604
175	0x3d95e91f	0.07319855
176	0xbcc77d08	-0.024351612
177	0xbbf6665b	-0.007519526
178	0x3d3e78f7	0.04650208
179	0x3e88aa98	0.26692653
180	0x3cc8a28b	0.024491569
181	0x3e287050	0.16449094
182	0xbbcbc801	-0.0062189107
183	0x3e98b875	0.2982823
184	0x3d9af025	0.07565335
185	0x3ddd9bac	0.10820708
186	0x3ec15788	0.37762094
187	0x3e329732	0.17440489
188	0x3e282170	0.16419005
189	0x3e23803b	0.15966885
190	0x3e655749	0.22396578
191	0x3cff0d7e	0.031134363
192	0xbc5106d1	-0.012757973
193	0x3d048cae	0.032360725
194	0x3da2167a	0.07914443
195	0x3e6eac6d	0.23307963
196	0x3e6d195f	0.2315421
197	0xbc742bca	-0.014903018
198	0xbe2cd992	-0.16879871
199	0xbbbd3a48	-0.00577477
200	0x3ddff800	0.10935974
201	0x3ea24eec	0.31700838
202	0x3eb561ff	0.35426328
203	0xbd465b8f	-0.04842716
204	0xbbde6638	-0.006787088
205	0xbc18c216	-0.009323617
206	0xbd5ee211	-0.054414812
207	0xbe324891	-0.17410494
208	0xbd990dd0	-0.07473338
209	0x3e3a7fce	0.18212816
210	0xbdac725b	-0.08420249
211	0xbe05bcaa	-0.13060251
212	0x3da8e547	0.08246856
213	0x3e64a77b	0.22329514
214	0x3da27277	0.07931989
215	0x3e432436	0.19056782
216	0x3d92d09f	0.071686976
217	0xbe6b8d65	-0.23003156
218	0xbdf6b698	-0.12046546
219	0xbcc55a2b	-0.024090847
220	0xbe6364b8	-0.2220639
221	0xbd0738e2	-0.033013232
222	0x3ccd3826	0.025051188
223	0xbd3f117d	-0.046647537
224	0xbd8ae346	-0.0678163
225	0x3d92981e	0.0715792
226	0xbc936e33	-0.017996883
227	0xbc93904a	-0.018013138
228	0x3d9c29ea	0.07625182
229	0xbc9abe36	-0.018889528
230	0xbd55b52c	-0.052174732
231	0xbc4581c5	-0.012054865
232	0x3c615379	0.013752812
233	0xbe78c89b	-0.24295275
234	0x3e8ea13c	0.27857387
235	0xbe7f6077	-0.24939142
236	0x3cbc2fb6	0.02297197
237	0x3e469625	0.19393213
238	0x3e1de8f1	0.15420891
239	0x3cc32a22	0.023823801
240	0xbdb0b10f	-0.08627521
241	0x3a12bf6b	0.00055979815
242	0x3d051c9d	0.03249799
243	0xbea484c9	-0.32132557
244	0xbcdf0ae6	-0.027226876
245	0x3e64fc66	0.22361907
246	0x3d9c7bfe	0.07640837
247	0x3db51ca7	0.088433556
248	0xbdcd88be	-0.10035847
249	0xbd8c5aab	-0.06853231
250	0xbd9ce7ce	-0.07661401
251	0x3e518b3e	0.20463273
252	0xbcb9c65c	-0.022677593
253	0x3d7f779c	0.062369928
254	0x3e241586	0.16023836
255	0xbdd10d43	-0.102076076

context_transformer_0/ffn_layer_3/intermediate_dense/einsum/Einsum;context_transformer_0/ffn_layer_3/intermediate_dense/Relu;context_transformer_0/ffn_layer_3/intermediate_dense/add f4 [32]
0	0xbe41a8b6	-0.18912014
1	0xbe4df50b	-0.20113008
2	0xbcdc57b4	-0.026897289
3	0xbe310771	-0.17287995
4	0xbe820f6d	-0.25402394
5	0xbdb11590	-0.08646691
6	0xbdaa02ce	-0.08301316
7	0xbdf48518	-0.11939448
8	0xbdc8dda8	-0.098079026
9	0xbe303357	-0.17207085
10	0xbd4ccac9	-0.04999808
11	0xbe9121b5	-0.2834603
12	0xbe178101	-0.14795305
13	0xbe3d19cd	-0.18466873
14	0xbd683e22	-0.05669988
15	0xbdb5e1c9	-0.08880956
16	0xbe3d4f4b	-0.18487279
17	0x3cb79243	0.02240861
18	0xbd7184f8	-0.0589647
19	0x3d80f4cd	0.06296692
20	0xbdce1334	-0.100622565
21	0xbde1915e	-0.11014055
22	0xbe91908e	-0.284306
23	0xbdd5eb51	-0.10445274
24	0xbea2488e	-0.3169598
25	0xbde679f3	-0.11253729
26	0xbde1c088	-0.110230505
27	0xbea56652	-0.32304627
28	0xbaf272ab	-0.0018497308
29	0xbe8555a8	-0.26041913
30	0xbea9eebf	-0.3318996
31	0xbecee8bf	-0.40411946
